Text_Processing/PrepareClassifiers/InMemoryClassifiers/svm_linear_kernel_classifier_ambience.lib_17.npy (npy, 808 bytes, 1 tensors)

array f8 [91]
00000000: 8143 9aea 3bb2 f73f 2e95 a4d2 3275 f23f
00000010: 7ce0 8dc0 4859 f03f 7998 d96c 4feb e93f
00000020: f95c 2f7e 0a79 ea3f f6d2 2792 7af5 e93f
00000030: 327d 8a5a 8ef0 ea3f ce7d 1b5e 4b59 f03f
00000040: 10a4 4f44 2046 f03f aefe e580 038c e43f
00000050: c7cd 311b 4607 f03f 2d6d 79da 423a e33f
00000060: ec4a 20d6 becc f03f 032b d39a 25df d23f
00000070: 9af7 6df6 fd1d e83f 0f8f 60ef ebc6 e5bf
00000080: 7148 3847 64ac a43f ab76 7fb8 ff89 e3bf
00000090: 5c24 49b8 9ab4 e03f ee86 8aa7 c3ba eb3f
000000a0: 9d56 f027 6027 eb3f 3e9d 4c18 6d77 cb3f
000000b0: 02b3 b6a4 0a99 e93f 75be 2350 550d b43f
000000c0: 39f5 4495 1a3c e3bf 3364 ae8c 6328 de3f
000000d0: f053 e6f1 c1e1 ecbf e4bc ffa6 8cbc e1bf
000000e0: 6343 51dd 1ae1 e5bf c9bb de5f 4667 a23f
000000f0: 56f3 6a2d c131 d13f 4767 2b06 60be e13f
00000100: 2767 0418 279b d3bf eef5 8331 a125 e43f
00000110: aec8 36b4 981a e0bf 1b1a cdf5 a2f2 e6bf
00000120: f1b5 1ff8 896b efbf 1b3f 9fe8 e36c e6bf
00000130: 4c60 b855 feb8 e9bf d6b5 7a76 ac21 d2bf
00000140: 5687 fa0a 8601 b0bf f85a 5bba 9ecc d13f
00000150: ee41 5d07 37f0 e2bf 9930 9a58 88e1 d23f
00000160: 6c52 49a6 ef2d e6bf 9680 45a6 57c5 eabf
00000170: 3796 8f13 9376 d83f 7a19 3f61 7248 d23f
00000180: f171 e4a0 1fa4 e53f f4dd ac9b 595e ee3f
00000190: fdb2 5d59 bd7e ee3f bae2 3623 0f89 d93f
000001a0: 3d82 a78c b4a2 eb3f e759 a9f0 a0d0 d53f
000001b0: 2837 34fa d006 d73f 694a 6a44 eb35 cbbf
000001c0: 97ef 0f33 f788 db3f 1991 a4b4 d161 e43f
000001d0: f4cf 8937 018e ea3f 7890 808e 7090 adbf
000001e0: 7642 bb6c f96d e73f 3f45 e5ed a1ec c9bf
000001f0: bc4f a3de 5176 d0bf 568a 452e 2a66 de3f
00000200: ebf4 26ae 726e e73f 22c4 dfdb b3fb ea3f
00000210: a46e ac8a 1506 d33f afc9 56ab f661 eb3f
00000220: 734d 8c93 8fc0 be3f d581 b53c e124 a03f
00000230: 982a ce0d adcc cf3f d865 dca5 bdd6 e23f
00000240: 1a0a 1129 2a00 d3bf 6697 a0a3 22eb de3f
00000250: c13c 1e18 dccf dcbf b8d2 34fe b895 ddbf
00000260: ef2f a97e 6b5c d63f 9247 1f04 59f8 e4bf
00000270: 7f2b 7e5d 75cb d63f 99eb ea36 7b6e e7bf
00000280: a06e d930 1a46 eabf c271 3790 0a95 e7bf
00000290: 77c7 95af 4807 b13f 5dba ff56 fff5 e8bf
000002a0: 0537 b39d f046 ecbf cee8 331d 5261 e83f
000002b0: 589e 1147 36c2 b3bf c9e0 29cb f34a d0bf
000002c0: 876a 1f39 28bc e7bf 5192 1709 36b5 eabf
000002d0: 0b1f 2cce 9e69 b8bf
1.48101417199743 1.153612921546777 1.021797897496099 0.8099743963218905 0.8272755112219833 0.8112156729317508 0.8418647545221687 1.0218003917760714
1.0171206158067925 0.6420915143534864 1.0017758428847274 0.6008619563175778 1.0499866833021612 0.294869805523078 0.7536611378743487 -0.6805324244819263
0.04037774438269615 -0.6105955699419686 0.522046432431249 0.8665483734405066 0.8485565929465398 0.2145820969246674 0.7999318329871985 0.07832844931157885
-0.6010868945519753 0.47121514070892373 -0.9025583004573701 -0.554266287011981 -0.6837286303144591 0.03594417496002895 0.2686617797406162 0.5544891472338599
-0.30634476991109455 0.6295934645747232 -0.5032466430477791 -0.7171187210850037 -0.9818773122948966 -0.7007922690772576 -0.8038322138045344 -0.28330527849433673
-0.06252324836762332 0.27811401556884574 -0.5918231147607551 0.29501541760033373 -0.6931074378758928 -0.8365896461000542 0.3822372141861225 0.285671801535862
0.6762846128872849 0.9490173378498512 0.9529711480550699 0.39899042548089947 0.863611483302584 0.34085868360617017 0.3597910350225555 -0.21258297768197856
0.43023471819446385 0.6369408157520723 0.829834564660358 -0.05774261226204741 0.7321745990430617 -0.20253395191188336 -0.25722166769014243 0.4749856426116471
0.7322324181947385 0.843225411836219 0.2972463468774811 0.855708441397203 0.12012574531791191 0.03153137079312144 0.24843371557320348 0.5887134780379553
-0.296885051826537 0.4831015203402472 -0.45018675189289686 -0.46226334404790803 0.34939086312510786 -0.6553158836852495 0.35616811876450777 -0.7322364876375672
-0.8210574106301074 -0.7369435135583944 0.06651739393944732 -0.7800289820859906 -0.8836596565322173 0.7618799753538725 -0.07718219027594253 -0.25457472648805585
-0.741718398635684 -0.8346204927043549 -0.09536163838867766
