Text_Processing/PrepareClassifiers/InMemoryClassifiers/svm_linear_kernel_classifier_food_sub_tags.lib_16.npy (npy, 520 bytes, 1 tensors)

array f8 [55]
0	0xbff0a5df17e322f4	-1.040495961484507
1	0xbff06f363cf4d910	-1.0271513348685097
2	0x0000000000000000	0.0
3	0x0000000000000000	0.0
4	0xbfefd0cd81d780d5	-0.9942386184666484
5	0xbff0e44be81ab0bb	-1.0557364527294755
6	0xbff0d29075535b83	-1.0514072974235382
7	0xbfefa46a375c42e0	-0.9888201791055415
8	0xbfeeb2f58c29fc0f	-0.9593456018045589
9	0xbfe9afb5a4339eb8	-0.8026989180625241
10	0x3fe9440cd36bb93f	0.7895568970978174
11	0x3ff1d28d2b5bad15	1.113904160850159
12	0x3fef4a40b14af924	0.9778140509368183
13	0x3ff1ee17c5e3205e	1.1206281404465908
14	0xbfe0ecf2217b9a9f	-0.5289240507089125
15	0x3fd056abb35623f7	0.2552899600346445
16	0x3feff2894794828b	0.9983564756440314
17	0x3ff1e4382a9272a9	1.1182176268550086
18	0x3ff12ded3f01b487	1.0737125836560908
19	0x3ff0d1f9ed4c2c46	1.051263739532048
20	0x3fee73f5712b2fa6	0.9516551218343821
21	0x3ff0cfd0f664777b	1.0507363915162091
22	0xbfeecac981347409	-0.9622542880566708
23	0xbfdb1942207d8c19	-0.42341664479153135
24	0x3fe4bfa6f45103c4	0.6483950397306377
25	0x3feb3e8471188107	0.8513815125370748
26	0x3ff05477c7601570	1.0206220424746242
27	0x0000000000000000	0.0
28	0xbfefd2dec658d13d	-0.9944909929240918
29	0xbff18f7c5ebe1d22	-1.0975307179340423
30	0xbff21683bbc4cda5	-1.1304967245786
31	0xbfee52ab4a7bbe89	-0.9475914435151519
32	0xbfedd24a30d32082	-0.9319201425178252
33	0xbfe8cfde21b9cde0	-0.7753744753558145
34	0xbfec413c5b0015b3	-0.8829633500433175
35	0xbfef609c220cf192	-0.9805432000207921
36	0xbfef21e75385c038	-0.9728886252687579
37	0xbfec2659e915c6fd	-0.8796815445368505
38	0xbfeb90ed40a384a1	-0.8614412558055343
39	0xbfe578b4712f8806	-0.6709844790132145
40	0xbff55c70a810f11a	-1.3350683751187433
41	0xbff1ca392f1328b7	-1.11187094105348
42	0xbfc6bc77eda74a29	-0.1776266012589798
43	0x3fcaf706d0c39694	0.21066365426593292
44	0x3fec08658600eeee	0.8760249726542193
45	0x3fee55b4afd46c00	0.9479621347594502
46	0x3ff0066fb94409d0	1.0015713917679143
47	0x3ff1370cc6c9ffd6	1.0759399190137535
48	0x3ff17906c5e1a3ae	1.0920474748365723
49	0x3fed096ec986098d	0.9074014602668271
50	0x3ff00906ac1f5720	1.0022036288768916
51	0x3ff0de62d351a77b	1.054293466057486
52	0x3fd268ccf3714388	0.28764652036357363
53	0x3fecf3cca28b5138	0.9047606634799541
54	0x3febe31db59d1dea	0.8714741274970355
