Text_Processing/PrepareClassifiers/InMemoryClassifiers/svm_linear_kernel_classifier_service.lib_17.npy (npy, 5704 bytes, 1 tensors)

array f8 [703]
000000 00 00 00 00 00 00 00 00 c7 23 ee 2b e7 60 ec bf
       0.0 -0.8868289812099811
000010 00 00 00 d8 aa 39 e5 bf 93 38 a9 14 c1 b4 ee bf
       -0.6632894724607468 -0.959564724305681
000020 85 70 0c 6a 4a d9 ed bf 00 00 00 00 00 00 00 00
       -0.9327747412931023 0.0
000030 81 84 92 91 94 18 f0 bf 00 00 00 00 00 00 00 00
       -1.006001061098033 0.0
000040 00 00 00 00 00 00 00 00 1d 8d fe 2c b3 d6 ef bf
       0.0 -0.9949584845348088
000050 11 eb d0 4e 3f 95 ea bf 00 00 00 88 67 df e4 bf
       -0.8307186641098686 -0.6522710472345352
000060 00 00 00 00 00 00 00 00 00 00 00 00 00 00 00 00
       0.0 0.0
000070 00 00 00 9c da 64 e5 bf 69 5b fa d3 1d a3 ec bf
       -0.6685612723231316 -0.8949116840548018
000080 00 00 00 00 fc 78 e3 bf 00 00 00 00 00 00 00 00
       -0.6085186004638672 0.0
000090 00 00 00 00 00 00 00 00 00 00 00 00 00 00 00 00
       0.0 0.0
0000a0 ce de ad 8f 93 13 f1 bf 68 f2 86 68 24 b8 f0 bf
       -1.0672793972461707 -1.0449565966693175
0000b0 00 00 00 00 00 00 00 00 00 00 00 00 00 00 00 00
       0.0 0.0
0000c0 00 00 00 00 00 00 00 00 00 00 00 00 00 00 00 00
       0.0 0.0
0000d0 00 00 00 98 54 63 e5 bf 00 00 00 00 00 00 00 00
       -0.6683752983808517 0.0
0000e0 78 0c 3a b3 06 ad e9 bf 00 00 00 82 ab 79 e5 bf
       -0.8023713589212909 -0.6711022891104221
0000f0 00 00 00 00 00 00 00 00 00 00 00 00 00 00 00 00
       0.0 0.0
000100 00 00 00 00 00 00 00 00 00 00 00 00 00 00 00 00
       0.0 0.0
000110 00 00 00 4a 1b cf e3 bf 1e 6d fb 20 89 10 f1 bf
       -0.6190315671265125 -1.0665370262493705
000120 10 78 26 90 e1 6d ee bf e0 92 f4 52 a3 f4 ec bf
       -0.950913220923896 -0.9048630352231974
000130 00 00 00 c8 3f 82 e5 bf 70 f9 5a a4 b0 f5 ee bf
       -0.6721495538949966 -0.9674914560380738
000140 fe 13 a5 67 85 e6 ed bf 00 00 00 00 00 00 00 00
       -0.9343897842705926 0.0
000150 31 a9 be 48 a9 76 f0 bf 00 00 00 00 00 00 00 00
       -1.0289700357048555 0.0
000160 00 00 00 00 00 00 00 00 31 75 4a c3 37 15 f0 bf
       0.0 -1.0051801327275138
000170 f7 c3 57 55 0d f7 e9 bf 00 00 00 a0 da 9f e5 bf
       -0.8114077250339723 -0.6757634282112122
000180 00 00 00 00 00 00 00 00 00 00 00 00 00 00 00 00
       0.0 0.0
000190 00 00 00 18 69 e6 e5 bf 2d c4 13 c8 8e 05 ed bf
       -0.6843762844800949 -0.9069284351118135
0001a0 00 00 00 58 f3 97 e3 bf 00 00 00 00 00 00 00 00
       -0.6122986525297165 0.0
0001b0 00 00 00 00 00 00 00 00 00 00 00 00 00 00 00 00
       0.0 0.0
0001c0 93 08 84 a6 9b 7a f0 bf 59 98 1f b7 f2 34 f0 bf
       -1.0299335960885727 -1.0129267838724643
0001d0 00 00 00 00 00 00 00 00 00 00 00 00 00 00 00 00
       0.0 0.0
0001e0 00 00 00 00 00 00 00 00 00 00 00 00 00 00 00 00
       0.0 0.0
0001f0 00 00 00 f4 3d 00 e6 bf 00 00 00 00 00 00 00 00
       -0.6875295415520668 0.0
000200 3d 72 6f 57 fe e6 e9 bf 00 00 00 f2 a4 a2 e5 bf
       -0.8094474513741897 -0.6761040426790714
000210 00 00 00 00 00 00 00 00 00 00 00 00 00 00 00 00
       0.0 0.0
000220 00 00 00 00 00 00 00 00 00 00 00 00 00 00 00 00
       0.0 0.0
000230 00 00 00 a0 d5 4c e3 bf 97 87 12 7f c6 a5 f0 bf
       -0.6031292080879211 -1.0404725040211582
000240 9b 14 82 70 c3 f5 ef bf 70 08 e0 2e 1f 5c e5 3f
       -0.9987504193710665 0.6674953380136355
000250 80 54 09 40 6b 1f e8 bf 59 a4 10 89 1e e4 e0 bf
       -0.7538353205406025 -0.5278465916682179
000260 e7 e9 59 bd 47 d2 ec 3f 04 51 e5 4b f4 83 ec bf
       0.9006689737573738 -0.8911077005709847
000270 cb 2b 51 a9 0d 36 e9 3f 2b cb c9 d7 4c 93 eb 3f
       0.7878483111356841 0.8617309774984724
000280 43 92 2f a3 cf a5 eb bf 3a 51 5d 51 5f 16 e2 3f
       -0.8639906108115344 0.565230997958259
000290 f0 2e 9f 38 7d d2 e9 3f e1 5b b5 90 ea 08 eb 3f
       0.806944475736115 0.8448384119354807
0002a0 69 52 3a b5 81 d6 eb 3f 45 4a 84 08 77 5d e4 3f
       0.869934896431528 0.6364092985480246
0002b0 8a cb 61 2b 9b e9 cf bf 57 7f 00 bd 22 ad e1 3f
       -0.24931659334432893 0.5523847285694313
0002c0 c3 d0 46 77 24 86 eb 3f db 75 30 a1 15 11 ec 3f
       0.8601248101827185 0.8770855091312869
0002d0 94 22 8b f4 98 f5 e7 3f fc 1b a6 1c 01 7b f1 bf
       0.7487301613083042 -1.0925303572746534
0002e0 71 10 3f 19 39 3c ef bf bd 20 20 c7 f3 c7 ec 3f
       -0.9761014454929989 0.8994082345170892
0002f0 ac ef 5e a7 31 fe e6 3f 67 3d 63 f6 70 6c ed 3f
       0.7185295361482438 0.9194874584444904
000300 b9 54 55 70 d3 92 e8 3f cc a7 ba 02 a5 38 e5 3f
       0.7679230875025019 0.663164620714491
000310 c3 69 0b 3b f6 dc e9 3f f5 8a 13 c7 a2 fd dd 3f
       0.8082228806700232 0.4686057037453531
000320 f7 61 92 a7 28 12 e0 3f 47 4e 2f 15 63 d5 ef 3f
       0.5022166512381422 0.994798222900905
000330 60 8d f3 ad 42 18 ec 3f 7b eb 0b 45 2c f6 e9 3f
       0.877961482762128 0.8113004063192045
000340 39 ff 32 32 58 f7 e5 3f 75 55 c4 88 3e 62 d5 3f
       0.6864434223607311 0.3341213546385327
000350 df d0 03 f8 78 05 f0 bf 4b 7d e2 18 9d 59 e9 bf
       -1.0013360679704915 -0.7921891675977489
000360 54 dc ba cf a8 4c ea bf d4 9d 6b 12 bb 58 e9 bf
       -0.8218578393197142 -0.7920813903592099
000370 00 00 00 38 40 4a e5 3f b5 2f 66 ae 66 b0 ee bf
       0.6653138250112534 -0.9590333372338963
000380 00 00 00 a4 03 c0 e2 3f 00 00 00 10 39 3a e5 3f
       0.5859392359852791 0.66335728764534
000390 05 32 0b cb 11 03 ee bf 74 de c5 93 2d 36 df bf
       -0.9378746953676119 -0.4876817648978211
0003a0 00 00 00 00 15 fa b3 3f 00 00 00 78 4e e4 e4 3f
       0.07803469896316528 0.6528694480657578
0003b0 00 00 00 90 47 8d e4 3f 00 00 00 80 1a 8f a7 bf
       0.6422460377216339 -0.046013668179512024
0003c0 f4 e8 16 b5 53 a9 ea bf 00 00 00 00 1a ae 90 3f
       -0.8331697976020949 0.01628914475440979
0003d0 00 00 00 28 c4 1c e4 3f 00 00 00 30 65 9b e4 3f
       0.6285115033388138 0.6439691483974457
0003e0 00 00 00 68 11 57 e2 3f 62 c2 1e 48 d1 0a f1 bf
       0.573128417134285 -1.0651409928506372
0003f0 71 00 48 ec b3 e3 f1 bf 00 00 00 40 af 01 e7 3f
       -1.1180915097939101 0.7189556360244751
000400 00 00 00 24 d4 95 e0 3f 00 00 00 48 0e f3 e6 3f
       0.5182896330952644 0.7171698957681656
000410 00 00 00 50 03 02 e3 3f 00 00 00 c0 60 33 a2 bf
       0.5939957201480865 -0.03554823249578476
000420 00 00 00 4c 1a 73 e3 3f 19 96 a0 fb a7 09 e0 bf
       0.6078006252646446 -0.5011787333102716
000430 00 00 00 80 a1 9b 92 3f 00 00 00 28 77 cb e7 3f
       0.01817180961370468 0.7435870915651321
000440 00 00 00 d0 8b a0 e5 3f 00 00 00 a0 08 67 e5 3f
       0.6758479177951813 0.6688273549079895
000450 00 00 00 a4 87 6e e4 3f 00 00 00 c0 ec 85 ba bf
       0.6384924128651619 -0.10360603034496307
000460 b5 8d ad 5e 4b f6 f0 bf 6d e7 38 5e 93 93 eb bf
       -1.060130472026555 -0.861764606502431
000470 09 e1 48 e8 80 74 cf 3f 70 a9 a9 cd de 6f ef 3f
       0.24574290601754736 0.9824060456133292
000480 de b2 53 ad 5d 6c e2 bf 8f c2 fd 7b 8b d1 eb 3f
       -0.5757282624523119 0.8693292066291906
000490 52 88 93 24 ee 16 ee 3f af c0 4c 9f bf 88 e6 bf
       0.9402991022473179 -0.7041929351162447
0004a0 69 8b 62 31 7d ad eb 3f 55 80 f2 bf 38 8f ed 3f
       0.8649278606938938 0.923733115098012
0004b0 99 34 a2 7b 1b 93 ed 3f b4 d9 14 a7 b0 cd ed 3f
       0.9242074408263249 0.9313586486157903
0004c0 f0 71 60 dc 38 39 e9 3f bb 98 59 42 3f c1 c2 3f
       0.7882351211770224 0.14652243365998693
0004d0 b3 4d 09 75 8a ea e7 3f ba 5b 85 10 ad 18 ee 3f
       0.7473804746500065 0.9405122111010009
0004e0 d1 e3 56 0b 56 5f ee 3f a4 35 2a 34 75 03 eb 3f
       0.9491377088044094 0.8441720980496723
0004f0 7a b3 4d 7f 6c 0a f2 bf e0 f5 82 b4 36 8b ef bf
       -1.1275448773187393 -0.9857438588730325
000500 5f 03 98 3e ac 46 ef 3f e6 e7 f5 78 7d 8d ea 3f
       0.9773770544562516 0.8297717440138939
000510 31 0c 72 9f 8a 40 ef 3f 48 ec cc 48 7c bd eb 3f
       0.9766286005182164 0.8668805524715788
000520 2e 2b 67 1a 4f 48 ea 3f bf 42 5d 8e 27 fd ec 3f
       0.8213267818149228 0.9059026508858422
000530 65 af aa 71 d0 0a e7 3f 6c d3 c5 05 eb 56 e6 3f
       0.7200700969747059 0.6981101143597761
000540 ba 8f ee 2b a4 d1 f0 3f e5 01 aa 57 14 77 ee 3f
       1.0511819568718992 0.9520360672177587
000550 67 1c 76 49 72 a2 ec 3f 35 7a 44 d6 38 e0 e9 3f
       0.8948298868935013 0.8086208519851598
000560 1e e8 44 8c a0 0e e2 3f 55 48 5a 97 6a ec ea bf
       0.5642855395919957 -0.841359420405079
000570 f9 6f df 66 a3 d1 d0 bf f4 50 00 bc b0 d4 ed 3f
       -0.26279530569240667 0.9322131797694326
000580 12 b9 70 c7 d4 a0 e6 bf 00 08 9a da ca 52 eb 3f
       -0.707132710964091 0.8538564939083244
000590 ce 41 21 ca ab f9 ec 3f cc 53 59 ba b3 6a ec bf
       0.9054774234628498 -0.888025154078258
0005a0 1b c5 5a c9 33 d0 e6 3f 69 29 3f b4 15 fd eb 3f
       0.7129153187471816 0.8746441383785114
0005b0 c9 ac 94 6e 59 e5 ec 3f 17 52 94 3f 3c 17 ed 3f
       0.9029967460422991 0.9090863458428114
0005c0 0d fd e1 a4 b6 ce e8 3f bd 4b d1 74 17 ce a8 3f
       0.77523357585588 0.04844735432620648
0005d0 f5 49 83 61 87 8b e6 3f 7e de 89 f8 ef 17 ed 3f
       0.7045323280856893 0.9091720442074374
0005e0 35 6d ca 26 c9 0a ed 3f 55 65 c4 e8 45 a7 ea 3f
       0.9075666196471618 0.8329190775140584
0005f0 80 78 bd 13 d9 49 f1 bf 4c 6c 71 31 9d 13 ef bf
       -1.0805292864893374 -0.9711442914662114
000600 b4 d1 38 ba 25 1a ee 3f 05 0c c3 dd eb fd eb 3f
       0.940691817965265 0.8747462588584091
000610 a0 ee 83 2c b9 fb ee 3f dc 45 32 0c ee e5 ea 3f
       0.9682279462280867 0.8405676115236775
000620 bc 4b 1a 7b 5a 79 e8 3f 5d 0a 97 9c bc d6 eb 3f
       0.764813652453419 0.8699629839323496
000630 00 33 aa 4b 69 84 e5 3f 9b bb 3a 10 48 9a e4 3f
       0.6724134900883598 0.6438331906300506
000640 bc 7a aa 2b 03 71 f0 3f b4 e1 eb df c0 31 ee 3f
       1.0275909143162343 0.9435734151330082
000650 8c 9e c7 f6 1f 4b ec 3f 12 c2 f2 7b f1 26 e9 3f
       0.8841705150525327 0.7860038205017779
000660 e0 1b 96 26 e2 cb df 3f 6d 99 a1 09 93 f8 ed bf
       0.49681905525397774 -0.936593550501852
000670 67 db 10 1e 7e 32 e0 bf 20 c3 30 d9 c5 8f ef bf
       -0.5061636531089392 -0.9863003961564552
000680 00 00 00 00 00 00 00 00 00 00 00 00 00 00 00 00
       0.0 0.0
000690 f9 2b 39 0b 17 d6 ef bf bc 48 54 b0 81 e3 e9 bf
       -0.9948840350347147 -0.8090218013697021
0006a0 00 00 00 c8 b5 2e e5 bf 00 00 00 00 00 00 00 00
       -0.6619519144296646 0.0
0006b0 00 00 00 00 00 00 00 00 00 00 00 34 b8 cb e4 bf
       0.0 -0.6498681083321571
0006c0 81 00 2d 17 b5 c4 ec bf 00 00 00 34 e8 35 e5 bf
       -0.8990121319439056 -0.6628304496407509
0006d0 00 00 00 00 00 00 00 00 00 00 00 00 00 00 00 00
       0.0 0.0
0006e0 00 00 00 00 00 00 00 00 34 75 78 a6 e5 01 f1 bf
       0.0 -1.0629631521945386
0006f0 07 71 16 c3 ea 5e f0 bf 00 00 00 00 00 00 00 00
       -1.0231731052982143 0.0
000700 00 00 00 00 00 00 00 00 00 00 00 00 00 00 00 00
       0.0 0.0
000710 00 00 00 00 00 00 00 00 00 00 00 20 b4 31 e5 bf
       0.0 -0.6623173356056213
000720 00 00 00 00 00 00 00 00 dd 12 74 3b 39 f9 e8 bf
       0.0 -0.7804227982711286
000730 00 00 00 e2 e4 b7 e5 bf 00 00 00 00 00 00 00 00
       -0.678698007017374 0.0
000740 00 00 00 00 00 00 00 00 00 00 00 00 00 00 00 00
       0.0 0.0
000750 00 00 00 00 00 00 00 00 00 00 00 62 d8 2f e3 bf
       0.0 -0.5995904840528965
000760 2e e8 cb 1f 17 54 f0 bf b6 51 32 cf bb 87 ef bf
       -1.0205298654605133 -0.9853190466697501
000770 df 44 44 a2 c2 cb f0 3f c9 c6 1c 42 fa 59 ef 3f
       1.0497461641828563 0.9797335902460073
000780 28 89 8a e0 87 62 9e bf e5 1d 16 a1 90 f2 ec 3f
       -0.02967274005880785 0.904609980222571
000790 0c fa 9f 37 4d 6b ef 3f ab c4 b7 9b f7 1f ef 3f
       0.9818483435081489 0.9726522485126642
0007a0 a8 e3 5d df b2 07 ef 3f c2 a0 50 d4 ed 6f ed 3f
       0.9696897852546629 0.9199132105614114
0007b0 44 59 49 aa f0 7b e0 3f ef 39 60 d8 20 82 eb 3f
       0.5151294065388261 0.8596348024455532
0007c0 b9 29 bf a1 d5 1d ef 3f a1 e3 77 12 5c f7 ef 3f
       0.97239190665396 0.9989452706059759
0007d0 78 80 2c dd a1 86 ed 3f 95 75 3c a1 43 b0 f0 bf
       0.9226846046258421 -1.043033246830736
0007e0 75 a7 d7 c2 f8 d3 e5 bf 6e f0 50 70 a5 a1 f0 3f
       -0.6821254544749836 1.0394644152975405
0007f0 2f d1 2c 40 23 ee ec 3f f4 70 35 8a 25 93 f0 3f
       0.9040695432109142 1.0359244726924404
