Text_Processing/PrepareClassifiers/InMemoryClassifiers/svm_linear_kernel_classifier_ambience.lib_18.npy (npy, 808 bytes, 1 tensors)

array f8 [91]
0	0xbfad6e0660dd0973	-0.05748004848875867
1	0x3ff6e156320ba537	1.4300138430501883
2	0x401c1580f976aa2a	7.020999811046332
3	0x3fc8ea00bc7048ac	0.1946412010298152
4	0x3ff67c8440a13e9c	1.405399563274762
5	0x3fecbdf43ecaefb9	0.8981877542896576
6	0x400d0dd5afacc9a8	3.631755230389178
7	0x4005a3919917e740	2.7048675499362673
8	0x40100c85c565a63a	4.012229046181853
9	0x4004d85745179d25	2.6056352041083692
10	0x3ffb513538f22379	1.7073261475036061
11	0x4008fe0987f166af	3.124041616491773
12	0x3fd3db47e6ffb748	0.31025884207234755
13	0x3fd09b6b3cdd1540	0.25948601669036364
14	0x40159eee58263160	5.4052060864745215
15	0x3fb14c7c5c2126ec	0.06757333039527297
16	0x3fed8a2cb88a1597	0.9231170276913642
17	0xbfb8969b14099b2e	-0.09604806174466482
18	0x4007cb0d863c93cd	2.9741468894230594
19	0x4012618e59a2d656	4.59526958519344
20	0x40124f1b5e2f14dd	4.577252837775828
21	0x40066fa24da88eb3	2.804508787828888
22	0x3ffb51e2f6a2a39a	1.7074918398086312
23	0x40003a392779b4f4	2.028429325486849
24	0xbfc475e9d5e7faf4	-0.1598484320129142
25	0x400f1c669d2459ed	3.888867595359662
26	0xbff3807c6977a414	-1.2188686485117204
27	0xbfc067701932d76f	-0.1281566737213171
28	0xbfdbffaf577b7647	-0.437480769569309
29	0x400957a5f0290e03	3.1677969706086073
30	0x3feb98a6f2453781	0.8623842937320064
31	0x4004222a4943825c	2.5166822169997385
32	0x3ff7dc25705dbeec	1.4912466420464012
33	0x3ff06f9ee9341c61	1.0272511586679445
34	0x3fe56de9de8e6a61	0.6696671816637939
35	0xbfe9125142e6ef32	-0.7834860140496629
36	0xc016f5077282add9	-5.73928622171976
37	0xc011c8033d4c1580	-4.4453248574913005
38	0xc012bca5d22a728f	-4.684226306763448
39	0xbfd1657b1f07edfa	-0.271818905166327
40	0xbffd2818b33f7cf0	-1.8222891809344297
41	0x3fd7126c18ab8c04	0.3604994049948689
42	0xbff4d04de4ea076c	-1.3008555356941214
43	0x3fe338b159372ab2	0.6006705038538114
44	0xc00d6556296529da	-3.674480746650471
45	0xc0167886e1b64dcd	-5.6177020328063465
46	0x3fec12c6590bb765	0.8772918452429904
47	0x3fdd90a79874563b	0.46195402038697225
48	0x400526ab8d0dafd5	2.6438818950464147
49	0x40041f85cfe673bb	2.5153919450953857
50	0x40116b4b90a2db3c	4.354780445041623
51	0x4006cab3c5f6afff	2.8489757028492018
52	0x3ffa6d1e146bbef2	1.651640014428207
53	0x4002514faebdd3c4	2.289702763717715
54	0x3fdc595f9f33e22a	0.4429549269403049
55	0xbff32a899adcdfb6	-1.1978851365401915
56	0x4002f1083f9f3107	2.367691514058723
57	0x3ff1a22911bc950f	1.1020899479711408
58	0x40052ce39f99f088	2.6469185322621946
59	0x3ff5f1b732d7ec0a	1.3715126024314963
60	0x4003a111c37a533b	2.4536471626001037
61	0x3febe94b4ecfdfbf	0.8722282923981693
62	0xbfefd60692f4020d	-0.994876181619533
63	0x400c503559915ade	3.539164256809598
64	0x3ffffbc2385deda3	1.9989645196754757
65	0x40088cc9dca901e1	3.0687443961216876
66	0x3ffbb9c1d767aaf7	1.732850877214046
67	0x3ff5944e0e486903	1.348707252304451
68	0x3ff9498f3cdce544	1.5804588677841176
69	0xbfd6bb2e85a1fd11	-0.355174665928602
70	0xbfe2cb232d6b6df5	-0.5872970473387215
71	0x3fea2321c5bff788	0.8167885649015583
72	0xbfeb00780a4097b7	-0.8438072395554091
73	0x3ff10f86ad53f7ed	1.066290547430522
74	0xbff98b61c4f94195	-1.5965287870677447
75	0xc0031a1210a514e8	-2.387729768789189
76	0x3fff1c76e51a07cc	1.9444493245396073
77	0x3fd09cb31c520091	0.2595641876760136
78	0x3ff05c8dbddb4cd1	1.0225961128497156
79	0xbfd4ef567b468c72	-0.3271080211508838
80	0xc00169f89f91673f	-2.1767437425850455
81	0xbff059271e073632	-1.0217658207869929
82	0x3fd92e7b6a30b231	0.39346204157007764
83	0xbff6e05257414cde	-1.4297660263444452
84	0xc00b79a28de87404	-3.434392079025658
85	0x3fa7bb9fc3a7ea64	0.04635333312395032
86	0xbfb681689c3337b7	-0.08791211904028172
87	0xc00219a33d5408a7	-2.2625183860082703
88	0xc0006b3c4404e258	-2.052361041449597
89	0xbff11ce19b881929	-1.0695510936216783
90	0xbffaa5886a1aba39	-1.6654132981017382
